2024-05-15,17:35:28 | INFO | Running with a single process. Device cuda:0.
2024-05-15,17:35:28 | INFO | Loaded ViT-B-32-quickgelu model config.
2024-05-15,17:35:28 | INFO | zhuoyan: CLIP
2024-05-15,17:35:32 | INFO | Loading pretrained ViT-B-32-quickgelu weights (laion400m_e32).
2024-05-15,17:35:32 | INFO | Model:
2024-05-15,17:35:32 | INFO | CLIP(
  (visual): ada_VisionTransformer(
    (conv1): Conv2d(3, 768, kernel_size=(32, 32), stride=(32, 32), bias=False)
    (patch_dropout): Identity()
    (ln_pre): LayerNorm((768,), eps=1e-05, elementwise_affine=True)
    (transformer): ada_Transformer(
      (resblocks): ModuleList(
        (0-11): 12 x ada_ResidualAttentionBlock(
          (ln_1): LayerNorm((768,), eps=1e-05, elementwise_affine=True)
          (attn): MultiheadAttention(
            (out_proj): NonDynamicallyQuantizableLinear(in_features=768, out_features=768, bias=True)
          )
          (ls_1): Identity()
          (ln_2): LayerNorm((768,), eps=1e-05, elementwise_affine=True)
          (mlp): Sequential(
            (c_fc): Linear(in_features=768, out_features=3072, bias=True)
            (gelu): QuickGELU()
            (c_proj): Linear(in_features=3072, out_features=768, bias=True)
          )
          (ls_2): Identity()
        )
      )
    )
    (ln_post): LayerNorm((768,), eps=1e-05, elementwise_affine=True)
  )
  (transformer): Transformer(
    (resblocks): ModuleList(
      (0-11): 12 x ResidualAttentionBlock(
        (ln_1): LayerNorm((512,), eps=1e-05, elementwise_affine=True)
        (attn): MultiheadAttention(
          (out_proj): NonDynamicallyQuantizableLinear(in_features=512, out_features=512, bias=True)
        )
        (ls_1): Identity()
        (ln_2): LayerNorm((512,), eps=1e-05, elementwise_affine=True)
        (mlp): Sequential(
          (c_fc): Linear(in_features=512, out_features=2048, bias=True)
          (gelu): QuickGELU()
          (c_proj): Linear(in_features=2048, out_features=512, bias=True)
        )
        (ls_2): Identity()
      )
    )
  )
  (token_embedding): Embedding(49408, 512)
  (ln_final): LayerNorm((512,), eps=1e-05, elementwise_affine=True)
)
2024-05-15,17:35:32 | INFO | Params:
2024-05-15,17:35:32 | INFO |   accum_freq: 1
2024-05-15,17:35:32 | INFO |   aug_cfg: {}
2024-05-15,17:35:32 | INFO |   batch_size: 64
2024-05-15,17:35:32 | INFO |   beta1: 0.9
2024-05-15,17:35:32 | INFO |   beta2: 0.98
2024-05-15,17:35:32 | INFO |   checkpoint_path: ./logs/eps3_1gpu/checkpoints
2024-05-15,17:35:32 | INFO |   coca_caption_loss_weight: 2.0
…
